…
  (conv3): Conv2d(192, 384, kernel_size=(3, 3), stride=(1, 1), padding=(1, 1))
  (conv4): Conv2d(384, 256, kernel_size=(3, 3), stride=(1, 1), padding=(1, 1))
  (conv5): Conv2d(256, 256, kernel_size=(3, 3), stride=(1, 1), padding=(1, 1))
  (fc6): Linear(in_features=9216, out_features=4096, bias=True)
  (fc7): Linear(in_features=4096, out_features=4096, bias=True)
  (fc8): Linear(in_features=4096, out_features=1000, bias=True)
)
----------------------------------------------------------------
        Layer (type)               Output Shape         Param #
================================================================
            Conv2d-1           [-1, 64, 55, 55]          23,296
            Conv2d-2          [-1, 192, 27, 27]         307,392
            Conv2d-3          [-1, 384, 13, 13]         663,936
            Conv2d-4          [-1, 256, 13, 13]         884,992
            Conv2d-5          [-1, 256, 13, 13]         590,080
            Linear-6                 [-1, 4096]      37,752,832
            Linear-7                 [-1, 4096]      16,781,312
            Linear-8                 [-1, 1000]       4,097,000
================================================================
Total params: 61,100,840
Trainable params: 61,100,840
Non-trainable params: 0
----------------------------------------------------------------
Input size (MB): 0.57
Forward/backward pass size (MB): 3.77
Params size (MB): 233.08
Estimated Total Size (MB): 237.43
----------------------------------------------------------------
odict_keys(['conv1.weight', 'conv1.bias', 'conv2.weight', 'conv2.bias', 'conv3.weight', 'conv3.bias', 'conv4.weight', 'conv4.bias', 'conv5.weight', 'conv5.bias', 'fc6.weight', 'fc6.bias', 'fc7.weight', 'fc7.bias', 'fc8.weight', 'fc8.bias'])
…
